MP2/net.model (torch, 396255 bytes, 4 tensors)

weight f4 [32, 3072]
00000000: eefb 953b 5369 583c 7815 cabb 7884 3e3c
00000010: 597c 17bc 2300 bcb9 0723 2abc 6408 0d3c
00000020: e4a9 133c eb17 47bc 64dc ad3c 2833 c03b
00000030: 185d 4a3c 8de5 adb9 b48a f13a 4d97 09bb
00000040: 65c9 763c 7c64 873b 86f7 f5bb ca24 093c
00000050: b250 32bc 082e 0cbc 894e 53bc f9e1 213c
00000060: 5409 5bbc decd ebbb f5d0 42bb 3a0e bfbb
00000070: 18ee b43b f2f7 71bc c75d 8f3c 5605 aabc
00000080: deff e13b fa6a ce39 4c30 17bc f06c a43b
00000090: 92f2 b4b9 f8ce 263c c9d4 20bb c1ab 2dbb
000000a0: 4588 d33b 56a4 45bb 4f50 163c 37f9 6f3c
000000b0: ed9b 0b3c f4c3 e1bb c4c4 133c 0659 7c3b
000000c0: b741 033c f9f5 4dbc 2d9d 81bc 2483 89ba
000000d0: eb70 57bc 468a 3d3c 23d5 54bb 8024 19bb
000000e0: 1208 ee37 80f5 29bc d4c0 ef3b 2446 53bc
000000f0: a807 ed3a a835 2abc cc69 243b 5aa0 33bc
00000100: 7356 063c 6928 9dbb 1458 293c 6750 45bc
00000110: d7dd 56bc c403 95bc e1d0 5c3c f452 783c
00000120: 7424 a33c a5a5 94bc c6b1 a5bc 2c1e 87bc
00000130: b186 94bc a07b 5b3b 8a84 0d3b a963 733c
00000140: 4d22 29bc 46f4 75bc b247 ea3b 4295 fcbb
00000150: 55be 203c 3019 c6bb 11da ea3b b659 54bc
00000160: 5a14 dabb edbf acba 67f4 41bb 4073 5bbb
00000170: eda9 273c b0ab 4d3c eefa 94bc a455 6abc
00000180: 6f62 a43c f79c d4bb 428d 12bc 416f 81bc
00000190: b4f3 53bc c88e 20bb af6a 3dba e303 36bb
000001a0: 5a4d 35ba 9a73 9abc 3a5c c4bc 5b6d 49bc
000001b0: 4327 89bc 6900 49bc cb17 9d3c a838 bb3b
000001c0: ed45 bc3b af1c c1bc 6560 81bc d11e a7bb
000001d0: 5abd a33b c81c 99bc 4613 4abc 56ae 6bbc
000001e0: 2a49 093a 5105 39bc d60c d0bb f5f8 55bc
000001f0: 9a3d 4cbc 561c 34bc 3e80 66bb 5aa3 86bc
00000200: 4031 a33c 8fd6 85b9 7643 913c 0fda 523c
00000210: b0f0 27bc a3cf 273c 3b0a e0bb f165 4abb
00000220: f95a 66bc 0721 9fbc ba7b 613b e87a 5dbb
00000230: 812e 333c 548d 5bbc 2db8 5c3c 5ec1 91bc
00000240: 9fd1 32bc 6a0c e3bb eb50 6f3b 1aec ef3b
00000250: 0f76 1a3c 3f89 b9bc 8d9f cdbb 0cb5 84bc
00000260: 693d 7abb 7219 67bc 5fd3 523c db88 a7bc
00000270: 4264 a13b 9d92 323b 668b 0f3c 8de4 ebbb
00000280: 237d 843c 0e1a 4c3b 4308 e63a 374b 5bbc
00000290: 2ddf 3b3c b81c e6bb 24e1 66bc 0f00 a63c
000002a0: 870f 333c fd91 f3bb d3a8 dcbb b927 b539
000002b0: 097f 7e3c cc8d e43b dfd6 edba 473b 98bb
000002c0: eaa0 96bc be7d 7e3a 8ef2 2d3c 9fa2 bbbc
000002d0: 3eb3 05bb 426e 833b 3ff1 c03b eea0 423a
000002e0: 9c03 753c 18af 8e3c af26 533c 344c 86bb
000002f0: 0c69 e7bb 7985 a3bb 9f5c b5bb 1750 20bb
00000300: 73d0 543c ed9a 6f3c 9ebb a8bb 44c8 34bb
00000310: 2755 3d3a 3b6c dfbb 3693 c13a a6dd 803c
00000320: 3d3a b1bb ae11 16bb 4cc5 9e3c d099 8b3c
00000330: 82f3 523c 0aa0 093c 716b ac3b 182d f4bb
00000340: 4729 99bb 97e1 513c 1122 883c 560c 953b
00000350: 546e 9bbc 6c50 7fbc 6136 ba39 4c2f d43c
00000360: 70af 053c 2ef9 083b d610 473c 7b0d ffbb
00000370: 1daa 56bc d578 e03b fcdd 43bc 4ff2 2ebb
00000380: dc7a 49bc 19a0 3c3c ca0a 753b affe 8e3b
00000390: 1376 76bc 0dd8 82bc 953b 7cbb fd9e f03c
000003a0: 4ab9 ca3c 3bcf db3c fde4 963c 12af a13c
000003b0: c4fc 763c 913b de3b 48e3 7c3b 40eb cfbb
000003c0: fd94 473c 4ae9 da3a 5c1a 413c 2e68 6cbb
000003d0: cb33 80ba 4d55 70bc 30ee afbb ac50 3a3c
000003e0: ff38 7ebb 3411 8d3c 9c9a adbb 29c1 96bc
000003f0: 9b7a f8bb 2bd8 8dbc ebb8 86bc 58d7 b4bc
0.0045771515 0.013208705 -0.00616711 0.011628263 -0.009245955 -0.00035858256 -0.010384328 0.0086079575
0.009012673 -0.012151699 0.021223255 0.0058654733 0.012351297 -0.0003316816 0.0018428178 -0.0020994723
0.015062665 0.0041318517 -0.0075063137 0.008370588 -0.010883497 -0.008555897 -0.012897142 0.009880536
-0.013368923 -0.007196172 -0.00297266 -0.0058305534 0.005521547 -0.014768587 0.017500771 -0.020754497
0.006896957 0.00039371086 -0.0092278235 0.005017869 -0.00034513004 0.010181181 -0.0024540892 -0.0026500078
0.0064554536 -0.0030157766 0.0091744205 0.01464682 0.008521062 -0.0068898145 0.009019081 0.003850521
0.008011273 -0.0125708515 -0.015822018 -0.0010491353 -0.01314948 0.0115686115 -0.0032475672 -0.0023367703
2.8375569e-05 -0.010373473 0.007316688 -0.012895141 0.0018083947 -0.010388769 0.0025087474 -0.010963524
0.008199322 -0.004796077 0.010335941 -0.012043095 -0.013114414 -0.018190272 0.013477535 0.015156496
0.019914843 -0.018145392 -0.02022637 -0.01649388 -0.018130632 0.0033490434 0.0021593892 0.014855304
-0.010323119 -0.015011853 0.00714966 -0.0077082226 0.009811004 -0.006045483 0.007167109 -0.012960842
-0.006655258 -0.0013179757 -0.0029595138 -0.0033485442 0.010233385 0.0125531405 -0.018186059 -0.014302645
0.020066468 -0.006488438 -0.008944811 -0.01580012 -0.012936521 -0.0024499167 -0.0007225675 -0.0027773313
-0.00069161283 -0.018853951 -0.023969758 -0.012294139 -0.016742354 -0.012268164 0.019176384 0.005713541
0.0057456405 -0.023573248 -0.015793035 -0.005100109 0.0049969377 -0.018690482 -0.012333697 -0.014384827
0.00052370375 -0.011292771 -0.0063491864 -0.013059844 -0.012465859 -0.010993084 -0.0035171653 -0.016435314
0.019920945 -0.00025527595 0.017732363 0.012869372 -0.010250255 0.010242376 -0.006837157 -0.0030883516
-0.0140597755 -0.019424928 0.0034406022 -0.0033795182 0.01093638 -0.0134003945 0.013471645 -0.0177924
-0.010914235 -0.00692897 0.0036516737 0.0073218467 0.009427561 -0.022648452 -0.0062751235 -0.016199611
-0.0038183576 -0.014105188 0.012867778 -0.020451 0.0049252817 0.0027248033 0.0087612625 -0.0071988762
0.016172951 0.003114346 0.001755007 -0.013384632 0.0114667835 -0.0070224665 -0.014091764 0.0202637
0.010928995 -0.0074331746 -0.0067339926 0.00034552606 0.015533217 0.0069749113 -0.0018145702 -0.0046457383
-0.018387277 0.0009708068 0.010616912 -0.022904692 -0.0020401026 0.0040109465 0.005888134 0.0007424493
0.014954474 0.017417476 0.012887641 -0.0040984396 -0.007062083 -0.0049902764 -0.005534723 -0.00244618
0.012989151 0.0146243395 -0.005149319 -0.0027585188 0.00072224665 -0.006818322 0.0014768604 0.01573069
-0.005408554 -0.0022898722 0.019381188 0.017041117 0.01287544 0.008399973 0.0052618315 -0.0074516647
-0.00467411 0.0128101325 0.016617807 0.0045485897 -0.018973507 -0.015583139 0.000355172 0.02590146
0.008159503 0.0020900476 0.01215001 -0.0077835894 -0.013102082 0.006850342 -0.011954781 -0.002669472
-0.012297358 0.01151278 0.0037390464 0.0043638567 -0.0150427995 -0.015972162 -0.0038487662 0.029372687
0.024746556 0.026832214 0.018419737 0.0197368 0.015074912 0.006782003 0.0038587619 -0.0063451827
0.012181518 0.0016701606 0.01178607 -0.0036072838 -0.000978106 -0.014668775 -0.0053689703 0.011371773
-0.0038791297 0.017220117 -0.005297972 -0.018402653 -0.007582975 -0.017314991 -0.016445598 -0.02207534

bias f4 [32]
00000000: 1b17 433d 6502 42ba 13b9 c7bb 5dee 5fbc
00000010: 961c 583b 5507 9a3c 13a6 8c3c 9744 d6bc
00000020: 3e6e 87bc 0ff6 643b c8ca 0dbc 8bfd 5cbc
00000030: d9c7 f73c cd77 6dbc 41a8 3d3c 7f5b 30bc
00000040: 92e9 6f3c e927 fa3b 6b3c 48bc 050a bc3b
00000050: b54b 573a 74b2 793c 0a72 623c dd55 93bc
00000060: 5c98 9d3c 62f7 b9bc 86d6 533d 1546 223c
00000070: 893b a53c e278 003b 95f6 3cbc b008 173d
0.047629457 -0.00074008695 -0.0060950606 -0.01366767 0.0032976023 0.018802324 0.017169034 -0.026155753
-0.01653206 0.0034936701 -0.008654304 -0.013488184 0.030246662 -0.014493895 0.011575759 -0.010764002
0.01464309 0.007634152 -0.012221436 0.005738499 0.00082128803 0.0152403 0.013821134 -0.017985279
0.01923769 -0.02270097 0.051718257 0.009904404 0.02016999 0.0019603302 -0.011533399 0.03687352

weight f4 [2, 32]
00000000: 1f52 87be f238 dc3d e8a1 e6bd 98a9 2f3e
00000010: 9b55 efbd c629 833d 17ae 24be 5e0d 94be
00000020: c6c5 183e 2d26 9fbe d283 ef3d 8bd6 903e
00000030: 0254 92be 8d8a 753b f728 413e 44fd 443e
00000040: 5180 26be 463c 613e da35 883e 1091 73be
00000050: 7a3d 59bc cf4d 303e 6935 d7bd e4ad db3d
00000060: c211 ed3d 8f82 fa3c 9e37 8cbe 89cf 153e
00000070: f36b 1fbe 9cf6 1cbe c758 4cbd 9b00 9abe
00000080: 715c 913e bca3 23be a3a3 40be c2e8 7bbe
00000090: 9a41 0f3d 6668 813e b670 e8bd e9c8 9d3e
000000a0: 3639 d4bc ae1f 883e bb5d 033d 0c22 80be
000000b0: 51fb a43e 7429 bd3d 08f3 3bbe 09a9 46bd
000000c0: 8883 943e e72e 7fbe 01cf 67be 9cae 203e
000000d0: cdbb 733d 2427 8e3c 42cc 1bbe 6a49 65be
000000e0: c008 fcbd 149b 29be ff6f 963e 1ba5 58be
000000f0: b1c0 88bd a0fa 0b3c 5709 3b3e 3cef 663e
-0.2642984 0.10753049 -0.1126135 0.17154539 -0.1168625 0.06404452 -0.16082035 -0.28916448
0.14919195 -0.31083813 0.116950646 0.28288683 -0.28579718 0.0037466616 0.18863283 0.19237238
-0.16259886 0.21995649 0.26603585 -0.23785806 -0.013259286 0.17217182 -0.10508234 0.107265264
0.11575653 0.030579833 -0.27386183 0.1462995 -0.15568523 -0.15328449 -0.049889352 -0.30078587
0.2839084 -0.15980428 -0.18812422 -0.24600509 0.034974672 0.25274962 -0.11349623 0.30817345
-0.025906187 0.2658667 0.03207181 -0.25025976 0.3222299 0.09236422 -0.18354428 -0.04850105
0.290066 -0.24920236 -0.2263756 0.15691608 0.059505273 0.017352648 -0.15214637 -0.22391286
-0.123063564 -0.16563064 0.2938232 -0.21156733 -0.06677378 0.00854364 0.18265282 0.22552198

bias f4 [2]
00000000: 33be 5f3d 92c7 f5bd
0.054624747 -0.12000956
