MP2/net.model (torch, 396255 bytes, 4 tensors)

weight f4 [32, 3072]
000000 2d ad d3 3c 45 df f7 3c 9a 91 10 3c 38 eb a9 3c
       0.025839413 0.03025783 0.008823777 0.020742044
000010 82 1e 1b bb 58 a6 10 3c 34 b7 08 bc 2a 85 0a 3c
       -0.0023669307 0.008828722 -0.00834446 0.0084546
000020 ee 1e 51 3c b1 94 cf bb a8 58 aa 3c 60 fd c0 3b
       0.012763722 -0.006334864 0.020794228 0.0058895797
000030 6a 09 96 3c 75 39 a0 3b 0a 46 df 3b 2e 3d e2 bb
       0.018315036 0.004889662 0.006813769 -0.006904266
000040 b4 72 ec 3b 09 75 de bb 13 07 6e bc 43 f2 07 3c
       0.007215822 -0.006788854 -0.014528054 0.008297506
000050 73 01 27 bc 05 ed 70 bb 93 50 c6 bb e2 34 30 3c
       -0.010193217 -0.0036762368 -0.0060520857 0.010754796
000060 4f 74 8b bc dd 9b fe bb bb 82 b3 bb b0 6e 13 bc
       -0.017023234 -0.007770045 -0.005478231 -0.008998558
000070 a8 4a ec 3b 78 ca 85 bb cd 31 ee 3c d5 c4 b6 bb
       0.007211048 -0.004082974 0.029076481 -0.0055776634
000080 1d a3 f8 3c a4 43 3e 3c db 35 6b bb d8 8b 1e 3c
       0.030351216 0.0116128065 -0.0035890255 0.009676896
000090 aa 00 94 3b 83 59 9b 3c 85 9b 83 3b 4d b1 00 bb
       0.0045166807 0.018963581 0.004016342 -0.001963693
0000a0 e1 17 07 3c 4e 4e bd 39 46 9d 26 3c bd fd 95 3c
       0.008245439 0.0003610723 0.010169333 0.018309468
0000b0 24 ce 76 3c b8 6a b9 b9 0c 03 88 3c d1 2a aa 3b
       0.015063796 -0.0003536546 0.016603015 0.0051930924
0000c0 11 21 f2 3b 96 61 90 bc 32 8d 91 bc c1 31 fd ba
       0.0073891957 -0.017624658 -0.017767522 -0.0019317196
0000d0 19 70 84 bc b3 b3 16 3c 94 24 1e bb c2 1e 20 bb
       -0.016166734 0.009198117 -0.002413069 -0.0024432396
0000e0 03 ac 32 bb b5 5d 2c bc 3d a8 96 3b 88 7a 6e bc
       -0.0027263172 -0.010520388 0.0045976923 -0.014555581
0000f0 74 c9 87 3a d6 ca 93 ba a8 6c 87 3c 71 a9 ee 3b
       0.001035972 -0.001127566 0.016531304 0.0072833826
000100 cb 5a d1 3c 7e 06 84 3b 81 7a 89 3c f1 c1 25 bb
       0.025555989 0.0040290942 0.016782047 -0.00252926
000110 44 37 85 bb 8e f2 19 bc 12 68 92 3c 3f 1a 8d 3c
       -0.004065426 -0.009396208 0.01787189 0.01722443
000120 20 e1 bc 3c de 47 31 bc 49 14 83 bc d5 88 1a bc
       0.023056567 -0.010820357 -0.016000884 -0.009432037
000130 e5 29 32 bc ee e5 21 3c 4a 3f 15 3c c1 07 81 3c
       -0.010874246 0.00988148 0.009109328 0.015750768
000140 d6 cc 49 bc 08 b0 95 bc 67 86 bf 3b ab 17 54 bc
       -0.012316903 -0.018272415 0.0058448794 -0.012945096
000150 a2 86 50 3b 05 f8 3a bc 92 c3 50 3a 37 29 8d bc
       0.0031818529 -0.0114116715 0.00079637126 -0.017231567
000160 64 64 3e bb 30 7a f7 3b f9 3f 0d bb 54 7b 34 bb
       -0.0029051537 0.0075524077 -0.0021553023 -0.002753933
000170 62 00 95 3c 84 10 ee 3c 75 2a ba b8 fa cf 01 3c
       0.01818866 0.02906061 -8.8770794e-05 0.007923121
000180 bb d8 11 3d 09 38 67 3b 5e 43 dd ba ef f5 50 bb
       0.03560708 0.0035281202 -0.0016881039 -0.003188487
000190 93 05 70 bb 90 e9 99 bb f1 77 38 bc 71 ec 20 bc
       -0.0036624416 -0.0046970323 -0.011259065 -0.009821997
0001a0 8b 47 65 bb 28 be 80 bc e0 50 cf bc 35 22 30 bc
       -0.003498527 -0.015715674 -0.025307119 -0.010750343
0001b0 c1 9b 85 bc 34 fd 57 bc 66 8b c4 3c ca 40 06 3b
       -0.01630962 -0.013182927 0.023992252 0.0020485395
0001c0 93 e8 fa 39 57 d2 f1 bc 8f 4a c7 bc 28 71 99 bc
       0.00047856997 -0.029519243 -0.024327544 -0.018730715
0001d0 63 aa 17 bc d1 8b 0b bd 31 12 cc bc 5c 4e bd bc
       -0.009256932 -0.034068886 -0.024911018 -0.023108654
0001e0 1a 4f d0 b9 64 08 fb bb c0 45 03 bc ab 00 50 bc
       -0.00039731787 -0.0076609123 -0.008012235 -0.012695472
0001f0 42 af 8d 3a 2d 6f 23 3c ac 2d 7a 3c 42 0a b8 3b
       0.0010809677 0.009975237 0.015269678 0.005616457
000200 84 7b 0d 3d 9a 7d 0f 3c 8c bb dc 3c 93 50 c9 3c
       0.03454162 0.008757973 0.026944898 0.024574554
000210 18 44 ee ba 62 ba da 3b f7 1c 9e bc 8b 19 61 bc
       -0.0018178253 0.0066750506 -0.01930092 -0.013739
000220 26 f8 ab bc 4f 25 ba bc 08 61 a3 ba 86 14 19 bb
       -0.02099235 -0.022722868 -0.0012464831 -0.002335818
000230 cd 5e 6f 3c af 92 38 bc 98 11 a2 3c db b6 6d bc
       0.014610005 -0.011265441 0.01978378 -0.014508928
000240 d9 c9 a1 bb d4 02 c2 bb 14 ba 92 3b 81 bf aa b9
       -0.004937392 -0.0059207473 0.0044777486 -0.00032567608
000250 fa e3 03 ba 65 6a 12 bd 81 3b 99 bc 4b 81 ef bc
       -0.00050312246 -0.035745997 -0.018705131 -0.029236456
000260 cc 7c 6a bc 5e 70 a9 bc 2e 66 12 3c ad 0f 8d bc
       -0.01431198 -0.020683464 0.008935494 -0.017219389
000270 d0 e2 aa 3c e3 20 bd 3c 50 14 cc 3c a2 2d 73 3c
       0.020860106 0.02308697 0.02491203 0.014842423
000280 ed 37 b7 3c 5a 4b d9 3b f2 d3 0d 3c a8 fa c7 bb
       0.022365535 0.006631297 0.008656489 -0.0061028786
000290 2f e3 90 3c 36 e1 ab bb 94 09 9f bc 00 b8 1a 3c
       0.017686455 -0.005245353 -0.019413747 0.009443283
0002a0 9d 96 45 bb d5 cd 8c bc c4 58 92 bc 2c 90 a7 bb
       -0.0030149587 -0.017187992 -0.017864592 -0.005113622
0002b0 cf b4 75 3c d7 7b 8a 3b a0 4a 1f bc c0 4e 4f bc
       0.014996721 0.0042261886 -0.009722382 -0.012653053
0002c0 20 94 a8 bc 70 aa 98 ba 8d eb 33 3c 5a 2b e7 bc
       -0.020578444 -0.0011647474 0.010981453 -0.028218914
0002d0 5c ed 83 bc 6e 70 18 bc 4e 87 fa bb cb 1b 6b bc
       -0.016104393 -0.009304149 -0.007645524 -0.014349888
0002e0 a6 f5 b3 3a 44 a7 c5 3b 2f cd 7f 3b 3e fd b2 bb
       0.0013729825 0.0060319025 0.003903221 -0.0054623177
0002f0 29 44 4d 3b f1 c2 36 3c ea e0 07 3c 37 a3 7d 3c
       0.0031321144 0.011154876 0.00829337 0.015480808
000300 74 e3 81 3c fa b4 4c 3c 6e d0 a1 bb 7b be 1e bb
       0.015855528 0.01249432 -0.004938177 -0.0024222422
000310 27 cd c5 3a fc 45 c8 bb 81 d5 b1 bb cc 5c 57 ba
       0.0015091047 -0.0061118584 -0.005427063 -0.0008215427
000320 68 22 cd bc ca ff 9a bc 6b 91 c1 3b 77 07 04 3c
       -0.02504082 -0.018920798 0.0059072278 0.00805842
000330 af a3 16 3b 7b a1 6d bb 22 cc 28 bc 8b de a2 bc
       0.0022985747 -0.003625958 -0.010302575 -0.019881507
000340 39 87 41 bc b7 c4 b8 ba c0 e5 64 3b 98 20 2a bb
       -0.011812025 -0.0014096712 0.003492698 -0.0025959369
000350 fb 3a 0b bd 9c 85 fa bc 2a ba 45 bc ee 8d 39 3c
       -0.033991795 -0.030581288 -0.012068311 0.011325343
000360 d5 cd aa bb 43 fc 5c bc 4a 1e f0 bb e7 52 7f bc
       -0.0052125254 -0.013487878 -0.0073278295 -0.01558373
000370 58 68 b1 bb 06 73 a0 3c 4a 80 c2 3a bc 2c 7a 3c
       -0.00541405 0.019586097 0.0014839259 0.015269455
000380 5a 8f 66 bb b2 09 8c 3c a3 af 0f 3c 3e 48 96 3b
       -0.003518066 0.017094467 0.008769902 0.0045862487
000390 70 0b 3e bc b9 01 83 bc 09 0a 4d bc 5f 65 69 3c
       -0.011599407 -0.015992032 -0.0125146 0.01424536
0003a0 fa 3b b9 3b c2 5c 6b 3c 9a cf 37 3c eb 18 2c 3c
       0.0056529017 0.014365377 0.01121893 0.010503988
0003b0 d9 f3 2e 3b 5a 0b fa bb 90 bf b6 bb 13 44 48 bc
       0.0026695637 -0.0076307477 -0.0055770352 -0.012223261
0003c0 25 b0 99 3b 3c a4 34 bc 11 67 04 3b 6f 9c d1 bb
       0.0046901875 -0.011025485 0.0020203034 -0.006396822
0003d0 9c c9 a6 bb f0 25 e4 bc 4b f2 bf bc c9 1e c4 bb
       -0.0050899517 -0.027850121 -0.023430964 -0.005985115
0003e0 7b c5 84 bc 8c c3 b3 3a a4 ad 90 bc ef 24 88 bc
       -0.016207447 0.0013714894 -0.017660923 -0.016619174
0003f0 f5 5e f7 3b 68 15 33 bb 26 6c 8c bb 2d 5e eb bb
       0.0075491616 -0.0027325992 -0.0042853532 -0.0071828575

bias f4 [32]
000000 b8 96 7f 3a 7d 14 32 bd e6 d2 af bd 6b 82 22 bd
       0.0009749937 -0.04347657 -0.085851476 -0.039675158
000010 83 8b 8e 3b b2 f8 b5 3c 2a 7b 28 3c d0 c3 74 3c
       0.004350127 0.022213314 0.010283271 0.014939263
000020 c7 f2 f0 bc da 78 94 3c f1 e6 c2 bc c9 70 8e bd
       -0.02941264 0.018124033 -0.023791762 -0.06955106
000030 6a 00 10 3d 6c 10 4e bc b1 35 96 bd bb 9b 39 bd
       0.035156645 -0.0125771575 -0.073344596 -0.04531453
000040 54 14 da 3c b3 93 14 bd a2 ae 47 bd 96 e6 cd 3c
       0.026621021 -0.03627367 -0.048750527 0.025134366
000050 d8 d9 78 bb 7b 6a 01 bd a4 6a 10 3b 12 25 09 bd
       -0.0037971642 -0.03159569 0.002203622 -0.03348262
000060 2a ac 24 bb 36 d0 3d bd d3 81 9f 3c b3 3b 81 bd
       -0.0025127032 -0.046341144 0.019471085 -0.06310215
000070 c5 d7 dc 3b d9 0f 82 3a 08 4f 08 bc 4e 2f b0 3a
       0.006739589 0.0009922936 -0.008319624 0.0013441832

weight f4 [2, 32]
000000 e0 c4 d0 bd 40 1d 5d 3d 19 21 05 bd 8a fe 3e 3d
       -0.10193801 0.053982973 -0.032502268 0.046629466
000010 51 76 b0 bd 7a f9 e0 3d 48 92 dc bd 53 ec ac bd
       -0.08616317 0.10985084 -0.107700884 -0.08443513
000020 4f 6d da 3d 00 23 2d be a7 52 d5 3d fb 79 13 3e
       0.1066538 -0.16907883 0.10416155 0.14402
000030 1f a4 97 bd a8 97 fa 3c 6e 67 dd 3d 50 73 3e 3e
       -0.074043505 0.030589893 0.10810743 0.18598676
000040 98 5e 5a bd e0 8a 8f 3d a0 34 e6 3d 63 ff db bd
       -0.053312868 0.0700891 0.11240506 -0.107420705
000050 a2 17 56 3d 23 36 45 3e 3a 81 ad bd d3 e1 c4 3c
       0.05226863 0.19258933 -0.08471914 0.024033463
000060 73 94 2c 3d 57 08 13 bb f1 aa d9 bd f9 2b a5 3d
       0.04213376 -0.002243539 -0.106283076 0.08065028
000070 1c e4 bb bd 8a 71 e8 bd 2e dd 8b 3c 95 70 1a be
       -0.09174368 -0.11349781 0.01707324 -0.15082009
000080 3b ee f8 3d 20 9d d9 bd 2f 56 89 be 97 fd f7 bd
       0.12154814 -0.10625672 -0.26823565 -0.12108915
000090 d9 17 8c 3b f6 e8 53 3e 45 9d 2a be 70 da d3 3d
       0.004275304 0.20694336 -0.16661556 0.10344398
0000a0 a6 3f 88 3c 2f 2c fe 3d 05 c0 37 3d 0a 22 e4 bd
       0.016631912 0.12410771 0.04486086 -0.11139305
0000b0 69 41 e2 3d df 2f 86 3d 96 fb d2 bd 36 81 2c bd
       0.11047632 0.065520994 -0.103018925 -0.042115413
0000c0 5f 1e 39 3e 2c 70 cb bd 48 fb 94 bd c9 e9 d8 3c
       0.18077992 -0.099335045 -0.072744906 0.026478665
0000d0 64 59 c5 bb f8 da 48 bb 54 a6 30 be a8 0e 10 be
       -0.006022619 -0.0030648094 -0.17250949 -0.14068091
0000e0 79 82 4a bd 99 fe 07 be 41 46 01 3e 83 6b 15 be
       -0.049440835 -0.13280715 0.12624456 -0.14591794
0000f0 24 da 05 be b2 f1 ff bc ee ee ec 3d 21 bd 9a 3d
       -0.13071495 -0.031243179 0.1156901 0.07555605

bias f4 [2]
000000 b8 8e aa be 97 14 89 3e
       -0.3331201 0.2677352
